server/src/model/gcn_model.pt (torch, 45071 bytes, 8 tensors)

weight f4 [22, 64]
00000000: f6b8 c2bc 5adb 89bd f762 673d 4a88 c73d
00000010: acaf 46bc c176 273d a24f 47bd b772 7f3d
00000020: 714f bdb9 4faf c43d 155f 2ebd dbf6 973c
00000030: b163 32bc 2584 163e 15f7 f5bc d7fa 2a3d
00000040: c159 833d 9548 af3d ae56 103d ff61 44bd
00000050: 35a3 bdbc ee97 a13b 1eb1 31bd 4bcc 2b3d
00000060: bf17 ebbc e9d4 c4bb b067 ea3a 9393 333c
00000070: 9fed 033c 740e e5bd 259d f73d c364 e43c
00000080: 77e9 7b3d 525d 5bbc 241a 05bc a1f9 ccbd
00000090: d53a 2ebd cece 04bc 5ce0 003c 979d 79bc
000000a0: 713c 543d 389a 863d 7cdd 963c a7ee 64bd
000000b0: c6fa 063d c955 a33d 94e9 723d bd0a 533c
000000c0: a759 8cbd c692 813a 14e2 753d 5060 4f3d
000000d0: f285 9d3c e6a4 5fbd 56f9 05bd a720 0abc
000000e0: 4b17 fc3b 912a a73d 502e 61bc aaa4 d23c
000000f0: 378a 243c 2796 e23c cb8a cdbc 4fd4 88bd
00000100: 0d7a 703e 699e a3bd f397 9bbd eb1a 07bd
00000110: 933b 7fbd a8a7 9f3d dc32 963d 7e57 493b
00000120: 9780 34bc ded6 0ebd 6eba 813d 4c5a a33c
00000130: 3c0c 2abe 6a97 57bd d0a7 dbbc 699c 0bbe
00000140: b646 5e3d 133a c5be 1883 bebd c7f8 c23d
00000150: 0522 0ebe c4bf 163e 3893 ad3d 62b7 b23c
00000160: 3a88 afbd 6642 2d3d 0882 2c3d 9bee 4bbd
00000170: 42ec 4b3d bcbc 3cbd 91f4 42be 3014 60bd
00000180: e110 80bc df30 753c a4f1 7bbb 604b 623e
00000190: bfab 453e 253c 92ba 7ad9 9a3a bf8a 0e3e
000001a0: aacd 23bd c4a9 4cbb 79e0 1ebd d33a 8c3d
000001b0: 1a0f 36be 58c0 3cbc d842 67bc 0777 1f3e
000001c0: 7cfb 743d 2aff 92bd fd50 e2bd 7f9c edbd
000001d0: 3928 40bd 7def 443e bdac 39bc cbed a03d
000001e0: 6d0d 17be ed2c b83d 41e1 a43d d226 5fbe
000001f0: 4cc4 74bc 0c09 11be dcb9 f2bb 3180 113e
00000200: 6305 353e ff12 59bc 1f44 1a3d 687c bebc
00000210: 7de2 29be b408 fcbd 000a 073c 2204 9ebc
00000220: 0b6e 683d 3772 99bd efce 53bd 4727 213d
00000230: 3cd3 acbd 2323 2abe 1d46 633c 1f42 063c
00000240: ec19 dab9 1e04 713d fee2 7bbd 8709 7f3c
00000250: f2a8 88bd 5cce 2ebd 983d e33c 119b 573c
00000260: 14ee 81bd 22c7 2c3d c6e2 033b 500c cebd
00000270: 34ed 5a3d edf8 15be fce7 c1bc 8c42 97bd
00000280: 7155 80bc 8474 f43c 845d 5a3d 9d77 113e
00000290: 789a 703e 8ccd 843d 9752 763d 04ae 31bd
000002a0: 2a28 a3bd 0337 2dbb d152 163b fe9e 7dbe
000002b0: 2523 0dbe 8cd0 92bc 15e6 5b3c d170 603d
000002c0: 41a9 38be bf85 17bd 90f0 3dbd 2898 35be
000002d0: 8995 b5bd 1746 713e d296 abbc 47e0 aabc
000002e0: 26d0 a4bd 1308 b8bd 17a1 2f3d c32f aebb
000002f0: 2f7a 82bc 82b2 9abd e5dd 09bc 5a5d 0c3e
00000300: 7c87 45bc 8e45 98ba 3634 673c 5d57 e53c
00000310: 6f9d ef3c 6a74 3cbe 5872 acbc b467 ab3c
00000320: 8332 5cbd d94a 7a3c a231 1cbe 67fa 72bd
00000330: 7e01 29be 8725 45be 42e8 36ba 4d4a dbbc
00000340: 6720 fb3c 2197 9bbc e441 cabd 2438 81ba
00000350: ed3f 0bbe 07d2 84be 79e7 c7bc 1b1a f6ba
00000360: 9137 603c bb95 ee3a c0d6 ed3c 2cab bf3c
00000370: 7da8 0abc 26e5 11bc 4d16 573d 0222 143c
00000380: 8a1a a83b fa88 993b 7259 953b c7e0 06bd
00000390: efdf edbc aeee 50bd 586e 7bbd 2030 263d
000003a0: 9fc2 413c 1f81 ad3c d659 bc3c a396 ed3c
000003b0: af06 f2be b53a cfbb 449e 3a3d a3ac efbd
000003c0: 7a03 cabe 2c7a abbd 1efc 523d 3a72 92bc
000003d0: e1b7 dd3c 194f 1abd 168e 253c adbc 09bd
000003e0: 1d57 68bd 455b 08bd 1aaf 3f3c a3b3 8c3c
000003f0: c823 50be c5f9 04bc b505 fdbd db69 6dbd
-0.023769837 -0.06731291 0.056490865 0.09742792 -0.012126844 0.040884737 -0.04865993 0.06236526
-0.00036108078 0.0960375 -0.042571146 0.018550327 -0.010888026 0.14698847 -0.030025044 0.041743126
0.064136036 0.08558766 0.035238914 -0.04794502 -0.023149112 0.0049314415 -0.043381803 0.041942876
-0.028697846 -0.006006826 0.0017883684 0.010960477 0.008052259 -0.11184397 0.1209052 0.027880078
0.061501946 -0.0133889485 -0.008123908 -0.100085504 -0.042536575 -0.008105947 0.007865991 -0.015235326
0.051815454 0.06572384 0.018416159 -0.05589166 0.032954 0.079753466 0.05930479 0.012880978
-0.06853037 0.0009885661 0.060030058 0.05062896 0.01922891 -0.05460062 -0.03270849 -0.0084306365
0.0076932064 0.08162416 -0.013743952 0.025713284 0.010042719 0.027659489 -0.025090596 -0.0668112
0.23484059 -0.07989199 -0.075973414 -0.032984655 -0.062312674 0.0779565 0.073339194 0.0030722315
-0.011016986 -0.034872882 0.06334387 0.019940518 -0.1660623 -0.052634634 -0.026813418 -0.13633884
0.054266654 -0.3852087 -0.09302348 0.09520107 -0.13880165 0.1472159 0.084753454 0.02181596
-0.08570905 0.04229965 0.042116195 -0.0497881 0.04978586 -0.04607843 -0.19038607 -0.054706752
-0.015633048 0.014965265 -0.003844359 0.22099066 0.19303797 -0.001115684 0.0011814081 0.13920115
-0.03999106 -0.0031229118 -0.038788293 0.06847157 -0.17779198 -0.011520468 -0.014115058 0.15572749
0.059810147 -0.07177575 -0.110506035 -0.11602115 -0.04691336 0.19231983 -0.011332688 0.078578554
-0.14751215 0.08992944 0.08050776 -0.21792153 -0.014939379 -0.14163607 -0.00740741 0.14209057
0.17677836 -0.013249158 0.03766262 -0.02325268 -0.16590305 -0.123063475 0.00824213 -0.01928908
0.05674557 -0.07492488 -0.05171102 0.0393441 -0.08438727 -0.16614966 0.013871697 0.008194475
-0.00041599513 0.058841817 -0.061495773 0.015566236 -0.06672849 -0.04267727 0.027739331 0.013159529
-0.06344238 0.042182095 0.0020124181 -0.10060942 0.05344887 -0.14645739 -0.02367019 -0.0738574
-0.015665742 0.029840715 0.05331184 0.14205785 0.23496425 0.064845175 0.060137358 -0.043378845
-0.07966645 -0.0026430495 0.0022937546 -0.24767682 -0.13782938 -0.017921709 0.013421555 0.05479509
-0.18033315 -0.036992785 -0.046371996 -0.17733824 -0.08866412 0.23561893 -0.02094594 -0.020858897
-0.08047514 -0.08985915 0.042878237 -0.0053157522 -0.015927402 -0.07553579 -0.00841472 0.13707486
-0.012056228 -0.0011617409 0.014111569 0.02799576 0.029249875 -0.18403783 -0.021050617 0.020923473
-0.05375911 0.015276634 -0.15253308 -0.059320834 -0.16504475 -0.19252597 -0.0006977358 -0.026768828
0.0306551 -0.018992962 -0.09875849 -0.000985865 -0.13598605 -0.25941488 -0.024402367 -0.0018776091
0.013685123 0.0018202582 0.029033065 0.02339705 -0.008463022 -0.008904731 0.052511502 0.009041311
0.005130117 0.0046855183 0.004557782 -0.032929208 -0.029037444 -0.051008873 -0.06138453 0.04057324
0.011826186 0.021179734 0.022992056 0.029002493 -0.47270724 -0.006324137 0.04556109 -0.1170285
-0.39455777 -0.08372912 0.05150997 -0.017876733 0.02706522 -0.03767309 0.010104677 -0.0336272
-0.056723703 -0.033290166 0.011699462 0.017175501 -0.2032615 -0.00811619 -0.12354604 -0.05796228

bias f4 [64]
00000000: 810e b3be 3d21 c73d 86f8 673e 0b56 863d
00000010: 11d1 233e 48f1 16bd 56d0 033e 430a 9a3d
00000020: 0bbe 1d3e b7e3 4d3d c104 bc3d 5f9a 323e
00000030: ae40 12be 4962 5e3e 0486 333e a8e5 223e
00000040: 1d25 8e3e aa04 333e 88fb d4bd 990a 2fbe
00000050: b18e c1bd 0236 debc 5c7c 3cbe 16b0 883e
00000060: 6a27 163e aa3a c8bd 92a1 a7bb 8152 14bc
00000070: e2f4 273d 61f5 f8bc cdbd 8d3e 79fd 713d
00000080: 99f6 733e 0a47 053e adf2 313e 72cf 96be
00000090: 4b55 b4be a055 353d ec6c 9fba 1b9d 703d
000000a0: c763 173e 2dc3 7c3e 1a88 823e 9e33 6d3e
000000b0: dc85 573e ea7b 0d3e 6567 593e d962 043e
000000c0: 7504 3d3e a131 553e e78c 083e ef82 543d
000000d0: 8530 b2bc 95c3 91be 57c3 a5bd b9e8 53bd
000000e0: 37ce 033b 4973 463e 7c35 843d db37 5a3e
000000f0: afef 0f3e f2d1 c4bd 29e2 e03d 91f4 98be
-0.34972003 0.097231366 0.22653398 0.0655938 0.15997721 -0.036851197 0.12872443 0.075214885
0.15404527 0.050265994 0.09180594 0.174417 -0.14282486 0.2171718 0.17531592 0.1590792
0.2776269 0.17482248 -0.10399538 -0.17093886 -0.09451044 -0.027125362 -0.18406814 0.26696843
0.14663473 -0.09776814 -0.005115696 -0.009052874 0.041005023 -0.030390443 0.2768387 0.05907962
0.23824538 0.1301538 0.1737773 -0.29455143 -0.35221323 0.04427111 -0.0012163199 0.058743577
0.14784156 0.24683829 0.25494462 0.23164222 0.21047157 0.138168 0.21230848 0.12928332
0.18458731 0.20819713 0.13335 0.05188268 -0.021751652 -0.2846953 -0.08093899 -0.051735613
0.0020111927 0.19379915 0.06455514 0.2131037 0.14056276 -0.096103564 0.109806366 -0.2987409

weight f4 [64, 64]
00000000: 7005 04bd 791c 893d 8f4b e63d 7c3f 343d
00000010: bd62 643c 6510 51bd e51e bc3d 63bc 023d
00000020: 866a 973d 2d78 c8bb 15ba 913d 7dab d33d
00000030: ce7c f4bc 9f51 583d 5c25 f53d f1ff a83d
00000040: 5f2a 6e3d b1fb 213d cc85 54bd b594 94bd
00000050: eb12 4ebd 6b12 a33c 567d a6bd aa21 ce3d
00000060: fb25 8b3d ee8e 8bbd f105 ed3b ddb1 a6bb
00000070: f516 3f3d de19 c9bc 6276 863d 8216 01bd
00000080: bd49 013e 051b 9e3d 9a45 fa3d a40a 25bd
00000090: 1901 463b 6887 4b3c 6e12 f33c eef8 b93c
000000a0: ffa0 843d a8ae fa3d eda8 fb3d 80b6 013d
000000b0: 5795 813d fcc6 803d 228b b73d aa80 203c
000000c0: dd29 833d fe8c a83d 4014 203d 9599 1fbd
000000d0: c2f7 40bd a31e fe3b d637 a8bd b528 083c
000000e0: 44ef 92bc 27b0 933d 4ed4 9b3d 0805 6cbc
000000f0: 961a 953d aa6b 94bd ac7b 4b3d 031e dfbc
00000100: 1ad3 1cbe 4bce 90bd ccc2 abbd fbd6 24bd
00000110: 7f19 543d 3a93 893b b311 07bd 751f 9dbd
00000120: 612a 96bc 4f2e 1c3d 5f22 15bd 9dde febc
00000130: c464 88bc 6b78 0c3e 0690 25bd 9a21 9abd
00000140: 6adf 71bd 3edb 9abd c2cf a83d 209b 25bc
00000150: 8c98 4a3d 1a7d 61bd 9bf5 77bc e5fd 93bd
00000160: 5730 81bd 08b6 9c3c 02df 17bc f588 fc3c
00000170: b345 653c 92a6 a83d 5d37 873d 2d93 473c
00000180: 969a a1bd 0984 f8bc ba64 19bd 604c f4bd
00000190: a81e 00be 3bfb 51bc 98cc ca3a 31b0 b0bb
000001a0: ca61 9dbd fae4 98bd 9e17 7bbd 611e 9b3d
000001b0: 55e3 163e 69c4 2cbd 9e28 58bd 3e09 be3c
000001c0: 37bd a33d 1300 8fbd e0f7 1b3d e0bb 863c
000001d0: c266 e1bc 4d8f c8bd a559 353c c350 bf3b
000001e0: 7c7b ad3d de15 4cbd f502 0ebd fce8 3dbe
000001f0: 7fd0 7fbd 64fe 7fbc fe15 0dbc 836f a1bd
00000200: 31f0 41bd 012d 00bd 4920 16bd d112 26bb
00000210: a1ae d33d dd57 923d 35fe 86bc c772 82bc
00000220: 93ee c6bc ea99 6f3d ee50 92bc 74d6 00bd
00000230: 84c7 c7bb ee24 943d 94e8 1dbd d7c7 0bbd
00000240: 1efa 7fbc dfdd 0cbd 6b4b a13d 1a52 51bc
00000250: a46f 023e 8be9 0dbd 60cb c53b 37fc ebbc
00000260: 2c0f ddbc 4320 9f3c 8633 433b 57d6 ae3c
00000270: d795 0e3c 7182 b13d 52c1 463d 8be2 9b3d
00000280: 10ff 07bd 9d50 d1bc 2f11 15bd 282d 17bd
00000290: 8cd5 0ebd b6bc f53a c813 35bc 1498 55bc
000002a0: 9ce3 e8bc 282b 50bd 2979 06bd c7cd ea3d
000002b0: fcb0 b53d 385d a6bc 9fa6 1fbd e95d 983d
000002c0: 9884 d23d 3b99 1abd 8be3 8b3d 120e 0d3d
000002d0: f108 763c 7c74 c6bd 41da 8d3c a712 0f3b
000002e0: 65c0 633d 7519 30bc 7797 19bc b614 e5bd
000002f0: 4d81 d8bc b007 06bc 2514 1abc a9d1 35bd
00000300: 9bdd 77bc a71b 783d 72ba d73d 03a0 973d
00000310: 304d 733b 5db6 55bd 6a12 d03d f9b1 a43d
00000320: 6162 8b3d c0ce 64ba 74e2 993d 696f da3d
00000330: dbc1 08bd 7cac db3c 42eb dc3d 5f67 b13d
00000340: a776 543d 0f05 d73c 92e3 4abd c392 99bd
00000350: 9bb3 0dbd 5ce2 023d 2f14 94bd 2336 cf3d
00000360: c3ea 8b3d 47ab 47bd 5c31 a73c 4539 82bc
00000370: 25b9 c43c dd61 24bb bb31 863d b215 b7bc
00000380: 7141 ab3d ce41 ac3d c59d de3d a39a 2ebd
00000390: 6294 32bd 58a4 fa3c 5cbb a03c 77c6 c33c
000003a0: 6eb8 873d f12e f13d fe35 dc3d a434 6e3d
000003b0: be20 4a3d e22c 783d b5f7 ac3d ea80 3a3b
000003c0: ec6b 163d 29df b53d 8464 3a3d f878 95bc
000003d0: 7a54 30bd b261 09bd 1f1a 99bd 0176 4bbc
000003e0: 934f 4abb 61e8 3b3d f1a2 8f3d 7a1e 0ebd
000003f0: a9b6 9c3d bada 57bd c20c 7c3d 5957 3abc
-0.032231748 0.06694884 0.112448804 0.044005856 0.013939557 -0.051041026 0.0918558 0.03191794
0.073933646 -0.0061178417 0.071155705 0.10335443 -0.029844668 0.052812215 0.11970016 0.08251942
0.058145877 0.039546672 -0.05188541 -0.07254926 -0.05031101 0.019906243 -0.08129375 0.10065015
0.067943536 -0.06814371 0.0072333743 -0.005087121 0.046652753 -0.024548467 0.065655485 -0.031515606
0.12625785 0.07719997 0.12220307 -0.04029335 0.0030213057 0.01242242 0.029671874 0.022701707
0.0647602 0.12240344 0.122880794 0.031668186 0.063273124 0.06287953 0.08962084 0.009796301
0.06404469 0.08230017 0.039081812 -0.038964827 -0.04711128 0.007755117 -0.08213775 0.008310487
-0.017936356 0.07211333 0.07608853 -0.014405496 0.072804615 -0.07247098 0.04967849 -0.02723599
-0.15314904 -0.07070597 -0.08386764 -0.040244084 0.051782127 0.004198459 -0.032975864 -0.076720156
-0.018330755 0.0381301 -0.036409732 -0.03111201 -0.016649611 0.13717811 -0.040420555 -0.0752594
-0.059050955 -0.075613484 0.08242752 -0.010107785 0.049461886 -0.055050947 -0.0151342405 -0.07226161
-0.06308048 0.019129768 -0.009269478 0.030827025 0.013993668 0.08234896 0.066023566 0.012181086
-0.07890813 -0.030336397 -0.037449576 -0.1192863 -0.12511694 -0.012816246 0.0015472351 -0.0053920974
-0.076846674 -0.07465549 -0.06130182 0.07574154 0.14735158 -0.0421795 -0.05277311 0.023197766
0.07995074 -0.06982436 0.03807819 0.016447008 -0.027514819 -0.097929575 0.011068736 0.005838485
0.084708184 -0.04982554 -0.03467079 -0.18545908 -0.062454697 -0.015624616 -0.0086112 -0.07882597
-0.047348205 -0.03129292 -0.036651883 -0.0025340805 0.10336042 0.07145665 -0.016478637 -0.01592387
-0.024283683 0.058496393 -0.017860856 -0.03145452 -0.006096782 0.07233606 -0.038551882 -0.03412613
-0.015623597 -0.03439128 0.07875713 -0.012775922 0.127379 -0.034646552 0.006036207 -0.028806789
-0.026984774 0.019424563 0.002978535 0.02134244 0.008702717 0.08667458 0.04852421 0.07611569
-0.03320223 -0.025551135 -0.03639334 -0.0369083 -0.034871623 0.0018748257 -0.0110520795 -0.0130367465
-0.028428845 -0.050822407 -0.03283039 0.1146503 0.08871648 -0.020308122 -0.03897726 0.07439787
0.102791965 -0.03774379 0.0683051 0.034437247 0.01501678 -0.096901864 0.017315986 0.0021831186
0.055603404 -0.010748257 -0.009374491 -0.11185591 -0.026428843 -0.008180544 -0.009404217 -0.0443894
-0.015128518 0.060573246 0.105336085 0.07403567 0.0037124865 -0.05217587 0.10159762 0.08041758
0.06805874 -0.0008728318 0.07513896 0.10665781 -0.033388 0.026815645 0.10787059 0.086622946
0.05187097 0.02624753 -0.049533434 -0.07498696 -0.034595113 0.031954154 -0.07230412 0.10117748
0.068318866 -0.048747327 0.020409279 -0.015896449 0.024014065 -0.0025082745 0.06552454 -0.022349212
0.08362091 0.08410989 0.10869936 -0.04262794 -0.04359854 0.030595943 0.01962059 0.023898346
0.06626974 0.117765315 0.10752486 0.05815567 0.04934763 0.06058968 0.08445684 0.0028458186
0.036724016 0.08880455 0.045506015 -0.018246159 -0.043049313 -0.033540435 -0.07475685 -0.012418271
-0.0030870184 0.04587591 0.070135005 -0.034697033 0.07652027 -0.05269883 0.061535604 -0.011373364

bias f4 [64]
00000000: 6920 f7bb fcf6 d03c 8de0 2d3c d0c0 20bb
00000010: a667 813c 2d15 ba3c e77a 503d c36f 7aba
00000020: c01a 9abb dcb4 53bc 021c f5ba e873 11bc
00000030: 18c7 99ba 2627 fb3c 2af0 8b3c 5e20 e2ba
00000040: 79dd 25bc 0151 943a bdcd 143d d927 00bc
00000050: 0743 87ba 4f01 073d 56a5 1fbc 7b12 093d
00000060: 73f7 563a 8cad 1b3c 80b4 18ba 63ae 3f3d
00000070: 7899 fd3c f0a1 90bb d2ce 983c 0228 933c
00000080: 504d b43b a018 f1bb 847b 233c ecc9 493d
00000090: be72 30bc bc97 453d 3d7d 583d 3fc1 893b
000000a0: ed88 f13b def0 283b d5b7 e73c 2ba5 c13c
000000b0: ff51 3ebc 624e 21bc 869b 7eba 1fcb d63c
000000c0: 7f77 583b 6b3f 0cbc 6add 8dbd ccc9 96ba
000000d0: c674 233b 7637 2dba 38be 273d d77f 953d
000000e0: 87f9 523d 7002 143a d761 173d 855c a5bb
000000f0: 652d b3ba 1160 a93c 287b 593d d2de 01bb
-0.0075417054 0.025508396 0.010612619 -0.0024528988 0.015796494 0.022715176 0.05089846 -0.0009553397
-0.004702896 -0.012921538 -0.0018700364 -0.008877732 -0.0011732308 0.030658316 0.017082293 -0.0017252078
-0.010123604 0.0011315645 0.03632902 -0.007822 -0.0010319658 0.032960232 -0.009744009 0.03346489
0.0008200325 0.009501826 -0.00058252364 0.046797168 0.030956969 -0.0044138357 0.018653307 0.017963413
0.0055023804 -0.007357672 0.009978179 0.049264833 -0.010769544 0.04824041 0.05285381 0.004203945
0.007371059 0.0025778334 0.0282859 0.023638329 -0.011616229 -0.009845348 -0.0009712506 0.026219903
0.003303021 -0.008560042 -0.06926997 -0.0011504232 0.0024941429 -0.00066076906 0.04095289 0.07299774
0.0515075 0.0005646115 0.03695854 -0.0050464296 -0.0013670145 0.02067569 0.053095967 -0.001981665

weight f4 [64, 64]
00000000: 3384 bb3d 65f7 3fbd ba95 4bbd 05f3 9f3d
00000010: 75b4 39bd da52 2dbd 6f50 963d 9088 913d
00000020: f43b 8ebd 2661 a83d 7a9a a23d 8992 a03d
00000030: 5983 c1b6 2402 2ebd d025 3ebd ffb2 ba3d
00000040: 3499 8d3d 5f63 a53d 0a34 51bd 5188 973d
00000050: cbf2 a23d 29fb 54bd 24ce b33d a8a9 84bd
00000060: e5c8 803d e5a9 d13d 4790 d23d 361a 68bd
00000070: 39cb 4ebd 1466 863d 28b6 68bd 13e9 6ebd
00000080: 362d b43d 61e8 983d 88d5 0fbd d76a 7b3d
00000090: f86f 923d e5da 733d 9b4a 47bd 2005 b23d
000000a0: 32d9 34bd 94b7 c23d 245d 55bd 9ac5 3abd
000000b0: dcfe 8fbd 14e2 ad3d 4b96 973d a231 84bd
000000c0: dbd7 8c3d f9b3 a538 d531 9cbd e7f9 ad3d
000000d0: f685 9a3d e89b 9c3d 7926 74bd 0e32 313c
000000e0: 22ae 4cbd d371 9b3d 883d 09bd 4b8d 933d
000000f0: 2dda 913d 414f 67bd c6ae 5fbd 6ba0 983d
00000100: 1b7c 3fbd 430e 963d 1878 cb3c a3d4 0bbd
00000110: 329a bc3d 8c4a d93d 5112 cbbd 593b 25bd
00000120: b920 043d 0ef3 30bd 2e12 37bd 188f 8abd
00000130: 70cf 1636 ac8d b73d 2d4f 933d aa4b 41bd
00000140: d074 49bd cbca 13bd 24a6 ad3d 4e8b 22bd
00000150: 7cc4 7fbd e5c5 503d 3cf4 3ebd f8f8 813d
00000160: 35b5 66bd e123 1fbd 1a78 d1bc 0912 5e3d
00000170: 09dd b03d 24c1 42bd f71d f43c 133e 043d
00000180: c814 23bd 38ee 5fbd cc95 9e3d 91c7 eebd
00000190: 9604 f9bc c485 d1bd fb20 653d 0384 3cbd
000001a0: 5556 e23d 2ac3 36bd 4ec4 a73d 6c73 c53d
000001b0: 0165 29ba 2072 32bd 9e41 80bd d261 843d
000001c0: c217 21bd ec59 24b5 1838 2f3b 30d9 2dbd
000001d0: 2b58 0ebd 2349 49bd 0c01 483d 355c d0bd
000001e0: a09c 9c3d a356 43bd 6a8d a13d 3160 24bd
000001f0: 6b5e 59bd e6ea 9b3d e1a9 933d f6f4 13bd
00000200: 381a 1bbd 27af 983d 16eb 1e3d 5330 e9bc
00000210: 8e7b ba3d 6780 b03d aae2 c1bd 5204 c5bc
00000220: cbdc 553d ae62 21bd d314 ddbc 16f6 2abd
00000230: d22c d8b5 4e5a e03d 3902 8c3d dd03 d8bc
00000240: 0fb8 d0bc d42e 08bd 1299 8c3d 5122 f4bc
00000250: 110b 24bd f7ac 7e3d 7b67 21bd 8cb8 613d
00000260: 262c 18bd 0cc9 ccbc d51b 9abc 8d43 5c3d
00000270: 4bf8 b63d 6b60 19bd 272e 5b3d 7548 273d
00000280: 39d6 b2bc 08fa 24bd 7d37 a63d ab1f b7bd
00000290: f25a 04bd 0ea5 b1bd 823d 873d f67b 0fbd
000002a0: f3ee d83d 2b86 f7bc 2dbc bf3d 078a bc3d
000002b0: 79fd eb3c 2ce6 dabc 63b5 0abd 4c71 5e3d
000002c0: d986 ecbc 35dd 2735 70e2 d03b 27b9 19bd
000002d0: 6a2d d7bc 5e39 ecbc b78f 433d b3a3 02be
000002e0: d128 7e3d 40f9 02bd 5807 a13d 762d bebc
000002f0: 4541 f7bc 8c3e de3d 0f6c b13d 40c0 cdbc
00000300: e0cc 18bd a89f 8c3d f0ab 423d 1e12 0ebd
00000310: 59b5 833d d16d 4b3d b3db 64bd 0701 91bc
00000320: ea53 563d 0501 01bd 969a 14bd a7a2 e6bc
00000330: 8fc1 7e35 edb7 953d c96a 213d 4ce0 17bd
00000340: d375 0cbd e916 12bd 1ce5 963d 07b7 d5bc
00000350: 2510 15bd 8a05 693d 2c4b 17bd 9c12 c13c
00000360: 7bec 14bd c21e edbc fdbe e3bc f1df 923c
00000370: 582d 9e3d 55a4 d3bc ec29 0f3d 9ff8 3c3d
00000380: 5f59 d0bc bb3b 0cbd 7d03 503d 1258 97bd
00000390: 70e1 f4bc 5d9d 67bd 5359 833d e6a7 41bd
000003a0: 1f87 833d cf3f f0bc d8ad a03d 4bd0 a43d
000003b0: 793b 3b3d 1afe 04bd e52a 23bd 9ba5 443d
000003c0: abfc babc 425c e5b6 b524 2c3d 3066 11bd
000003d0: 8772 08bd e1fd f5bc ef1a de3c 934b 5ebd
000003e0: d31c 6f3d 0fd5 10bd 2e81 8c3d edaf 00bd
000003f0: b592 10bd b7f2 943d 0260 8f3d 084d d7bc
0.091560744 -0.046866793 -0.049703337 0.07810024 -0.045338113 -0.04231534 0.0733956 0.07106125
-0.06945029 0.082216546 0.0793962 0.07840449 -5.767139e-06 -0.04248251 -0.04642278 0.09116172
0.06913987 0.08075594 -0.05107502 0.07399047 0.07956465 -0.051997337 0.087795526 -0.06477672
0.062883176 0.10237483 0.10281425 -0.05666562 -0.050486777 0.065624386 -0.056814343 -0.058327746
0.08797686 0.07466198 -0.03511575 0.061381187 0.071502626 0.059534926 -0.048655134 0.08692384
-0.044152446 0.09507671 -0.05209078 -0.045598604 -0.070310324 0.084903866 0.07401713 -0.06454779
0.06877109 7.9013356e-05 -0.07626692 0.08494931 0.07545082 0.07646924 -0.059607003 0.010815157
-0.049970753 0.075900696 -0.033505946 0.07204684 0.07121692 -0.056472067 -0.054610036 0.07452472
-0.046749216 0.07326939 0.024837539 -0.034138333 0.09209098 0.10609922 -0.09915603 -0.0403398
0.03225777 -0.043200545 -0.044695072 -0.06765574 2.2472486e-06 0.08962569 0.07192836 -0.0471913
-0.049183667 -0.03608207 0.084789544 -0.039683633 -0.06244324 0.050969977 -0.04661964 0.06346315
-0.056325156 -0.038852576 -0.025569964 0.05421642 0.08635909 -0.047547475 0.029799445 0.03228576
-0.03981474 -0.054670542 0.07743415 -0.11659158 -0.030397695 -0.10230592 0.055939656 -0.046024334
0.11051623 -0.044619717 0.08191739 0.096411556 -0.0006461889 -0.04356587 -0.062625155 0.0646397
-0.039329298 -6.1225614e-07 0.0026736315 -0.042443454 -0.034752052 -0.049142014 0.048829123 -0.10173837
0.07647061 -0.047690045 0.07888301 -0.040130798 -0.05306856 0.07613163 0.07210136 -0.036122285
-0.0378668 0.07455283 0.038798414 -0.028465426 0.091055974 0.08618241 -0.09467061 -0.024049912
0.052212518 -0.03940075 -0.026987469 -0.041738592 -1.6106299e-06 0.10954724 0.068363614 -0.02636903
-0.025478391 -0.033247784 0.06865133 -0.02980152 -0.040049616 0.06217667 -0.039405327 0.05510764
-0.03715148 -0.02499821 -0.0188121 0.05377536 0.08934077 -0.037445467 0.05351081 0.040840585
-0.021830665 -0.04027751 0.08116052 -0.08941587 -0.032313295 -0.0867406 0.066035286 -0.035030328
0.10592451 -0.030215343 0.093620636 0.09206014 0.028807389 -0.026721083 -0.03386439 0.054307267
-0.028872894 6.2534247e-07 0.0063746497 -0.03753009 -0.026266772 -0.028835949 0.04774448 -0.12757759
0.062050644 -0.031975985 0.07862729 -0.023215037 -0.03018249 0.108517736 0.08663189 -0.025116086
-0.03730476 0.068663895 0.047527254 -0.034685247 0.06431074 0.049665276 -0.055873584 -0.017700685
0.05232612 -0.031495113 -0.036280237 -0.02815373 9.490404e-07 0.07310472 0.03940848 -0.03707914
-0.034292053 -0.03566638 0.07367918 -0.02608825 -0.03639235 0.056890048 -0.036936924 0.023568444
-0.036358338 -0.02894533 -0.027801031 0.01792905 0.077234924 -0.025835196 0.03495209 0.04613554
-0.02543324 -0.03423665 0.050784577 -0.07389845 -0.029892653 -0.056546558 0.064135216 -0.04727926
0.06422257 -0.029327301 0.07845658 0.08047541 0.045711014 -0.032468893 -0.03983583 0.048009496
-0.02282556 -6.835472e-06 0.042027194 -0.035497844 -0.033312347 -0.030028285 0.027112452 -0.054271292
0.0583771 -0.03535944 0.068605766 -0.031417776 -0.03529616 0.07272857 0.07000734 -0.026281849

bias f4 [64]
00000000: 2fb9 823d abf7 1e3d 3708 b33d a677 cf3d
00000010: 186f cd3d d4cc 883d 9a28 d13d 1a6c 7e3d
00000020: 69ef c73d 46a2 563d 81a8 843d 3e23 a93d
00000030: 85ba 5b3d a1ee 2c3d e236 753d 38c8 523d
00000040: 7bac a93d ff41 453d fd1e 9b3d de0d 973d
00000050: 823f ca3d d7a3 793d 4d7d e2b9 56dc 8d3d
00000060: 24cc 963d b6d9 993d 2323 793d 8b86 a83d
00000070: fbd4 cb3d 2de2 723d d075 af3c add4 9d3d
00000080: 3bae 943d b70e 373d 5f02 e53d e829 893d
00000090: 8026 ac3d b197 c23d d52a f83c f32f 853d
000000a0: 5619 743d 6cb2 813d e627 f03c 692a 5c3d
000000b0: 612f d5ba 7a47 ab3d 313d e23d 8a99 f63d
000000c0: 5d30 4f3d 924a 143d 9fd3 7d3d 91bb 523d
000000d0: cf6b 823d 05f4 7c3d 7838 a93d b644 663d
000000e0: 116f 943d 7037 963d 34d7 6c3d 5e6f 653d
000000f0: 19e5 873d abd4 943d d617 3a3d 0289 be37
0.06382977 0.038810413 0.08741801 0.10130243 0.10030955 0.06679693 0.10212822 0.062114812
0.09762461 0.05240085 0.06477452 0.08258675 0.053644676 0.04221976 0.059866793 0.051460475
0.08284851 0.048158642 0.0757427 0.07375692 0.098753944 0.060947265 -0.00043199435 0.06926791
0.073631555 0.07512228 0.060824525 0.08228787 0.09952732 0.05929773 0.021418482 0.0770658
0.07259794 0.044691768 0.11182093 0.06697446 0.08405781 0.09501589 0.030293861 0.06503286
0.059594475 0.063328594 0.0293159 0.053751383 -0.001626473 0.083632424 0.110468276 0.12041004
0.050583232 0.03620393 0.061969396 0.05144841 0.06368219 0.061756153 0.08262724 0.05621787
0.07247747 0.073347926 0.05782242 0.05601441 0.06635494 0.07267126 0.045432888 2.2713564e-05

weight f4 [2, 64]
00000000: d013 9f3e 42da 54be 39af 2cbe 6e7d e7bd
00000010: 142e 08be b926 983e eb86 20be a4c0 573e
00000020: a2ab 3abe ba4b 823e dcaa b63e 5c6c 02be
00000030: 6b9a 4fbe e2cc a83e a96f 6abe 093b 9b3e
00000040: f3b4 67bd 1872 7c3e b882 7e3e 68ee 98bd
00000050: 0eee b1bd bdc3 ab3e 430a 05bc c7d9 29be
00000060: a49d 26be 0ed6 3dbe 2cf8 a83e 711b 50be
00000070: 61c0 58be 607b 7bbe ac07 5fbe aef2 9b3e
00000080: 0f73 5cbe c00f 6e3e 2dc1 1abe 26c8 963e
00000090: b919 47be 8c98 1fbe 5ccb 8ebe f303 793e
000000a0: f4b2 6fbe 783d 8a3e 1daa 9ebe 4bd9 8d3e
000000b0: 08d2 583d bb47 ffbd 5a74 04be ce64 32be
000000c0: ddc0 5a3e 20b8 b0be f6a6 5a3e dd7b b63e
000000d0: 2c16 7e3e ecac 8e3e 5011 40be a1a0 7e3e
000000e0: 40ac 8e3e ef12 8e3e cf8e b43e 31cc a03e
000000f0: d1d2 993e 3e74 64be 6a0d 9dbe 4bd2 39b8
00000100: 273a 68be 97db 8c3e 7fb0 3b3e ec47 2d3e
00000110: 834d 1c3e 3156 96be 6d30 fd3d 39a6 8ebe
00000120: c1eb c83d ac3f 41be 2144 b6be 6c72 1f3e
00000130: 17c4 243e 3495 9abe 1a3e 0d3e d436 37be
00000140: b139 6b3e bd78 98be a957 a1be 72f6 683e
00000150: 2db7 463e 2588 86be 3b9b 0ebb 0680 293e
00000160: 55ce eb3d 1a39 143e f229 4fbe 797d a63d
00000170: cfb3 f33d bc7e 053e 4c3f 923e 925a 92be
00000180: 7463 d83d 786b 9cbe 1a21 953d ced5 a9be
00000190: c55d 143e 6491 863d 3995 943e 7e6b 9cbe
000001a0: b74d 133e 8f18 85be e3c1 9d3e 4062 b4be
000001b0: f453 2f3d bfc2 003e 4298 113e 08df 283e
000001c0: c78a 98be 7968 943e 0c25 b2be edc7 b0be
000001d0: 1aab aabe 27a2 8cbe 4ad1 fd3d 2e1e a5be
000001e0: 337f b9be e093 7abe 8dc1 93be 0791 47be
000001f0: a4b8 75be da92 2f3e be57 9c3e 2230 acb7
0.31069803 -0.20786384 -0.16863717 -0.11303221 -0.13298827 0.29717043 -0.15676467 0.2106958
-0.18229535 0.254484 0.3567723 -0.12736648 -0.2027375 0.32968813 -0.22894157 0.30318478
-0.05656905 0.24652898 0.24854553 -0.074673474 -0.086879835 0.33547774 -0.008120122 -0.16586982
-0.16271073 -0.18538687 0.3300184 -0.20322968 -0.21167137 -0.24558783 -0.2178027 0.30458587
-0.21528266 0.23248196 -0.15112753 0.29449576 -0.19443406 -0.15585536 -0.27889526 0.24317913
-0.23408109 0.27000022 -0.3098916 0.27704844 0.052934676 -0.124648534 -0.1293501 -0.17421266
0.21362634 -0.34515476 0.21352753 0.35641375 0.24813145 0.27866304 -0.18756604 0.24865963
0.2786579 0.2774882 0.35265204 0.31405786 0.30043653 -0.22309968 -0.30674297 -4.4303288e-05
-0.22678433 0.27511284 0.18329047 0.16921967 0.15263943 -0.29362634 0.12362752 -0.27861193
0.098105915 -0.18871945 -0.35598853 0.15570992 0.16090427 -0.30191958 0.13793221 -0.17892009
0.22971226 -0.29779616 -0.31512192 0.22750261 0.19405814 -0.26275745 -0.0021760005 0.16552743
0.11513964 0.14474908 -0.20230845 0.08129401 0.1189953 0.13036627 0.28563917 -0.28584725
0.10565844 -0.30550742 0.07281704 -0.33170933 0.14488895 0.065707 0.29020098 -0.3055076
0.14385115 -0.259953 0.30811986 -0.3523121 0.042804673 0.1257429 0.14218238 0.1649133
-0.2979338 0.28985956 -0.3479389 -0.3452753 -0.33333665 -0.27467462 0.12393434 -0.32249588
-0.36229858 -0.24470472 -0.28858605 -0.19488917 -0.23996216 0.17145863 0.30535692 -2.0526411e-05

bias f4 [2]
00000000: 3ac2 b5be a8f7 8e3e
-0.35499746 0.27923322
