server/src/model/gcn_model_state.pt (torch, 42191 bytes, 8 tensors)

conv_layers.0.weight f4 [22, 64]
000000 60 50 6f bc 97 e5 b0 bd 38 10 86 3d ab ae d3 bc
       -0.014606565 -0.08637541 0.06546062 -0.025840124
000010 2a e2 0c 3e 8e 04 01 bd 11 1f ac bd 5e 51 b0 bb
       0.1375815 -0.031498484 -0.08404363 -0.0053807935
000020 35 50 6a 3d cc e6 46 bd 8a e1 40 3e b0 16 82 3d
       0.057205398 -0.04855995 0.18836036 0.063519835
000030 51 b7 74 3d 8c 46 10 3d 71 77 65 3c bf 2d 4b 3d
       0.059745137 0.03522353 0.014005528 0.049604174
000040 ef 1f 69 bd b4 48 44 bd b3 77 92 bd 82 a4 89 bc
       -0.05691522 -0.047920898 -0.07151737 -0.016802076
000050 5e 98 7f bd bf 19 f9 3c ef 33 23 3c 17 1e ac bc
       -0.062401168 0.030407785 0.009961112 -0.021010442
000060 90 60 5b 3d 94 fa f8 bd 1b e4 5d 3c d4 fd c3 bc
       0.053558886 -0.12157169 0.013543154 -0.023924746
000070 23 67 e6 bc 94 ca 8d bc c1 fd e4 3c 69 aa 83 bd
       -0.028125351 -0.01730851 0.02795303 -0.064289875
000080 66 33 28 bd cc 0d dd bc d8 94 9c 3a 8c a0 f8 3d
       -0.041064642 -0.026984118 0.0011946214 0.12139997
000090 f6 12 39 3c 4e 43 2b bd 0a 01 96 3d ad 76 35 bd
       0.011296025 -0.041812234 0.07324417 -0.04430263
0000a0 9f b0 07 bd 18 ad 21 3c f2 9d 8b 3d 55 64 9a 3c
       -0.033127423 0.009867929 0.06817235 0.01884667
0000b0 5b 17 95 3d ff bf af ba 78 99 af bc 60 89 90 bd
       0.07279845 -0.001340866 -0.021435484 -0.07057452
0000c0 0e 8d 3e 3d fa 43 92 bc 89 e1 80 3d a8 6a 93 39
       0.04652124 -0.01785468 0.062930174 0.0002811749
0000d0 f2 0d bb ba 3f a5 ba 3c 32 b2 9e 3d d4 bb b2 bc
       -0.0014271124 0.022783874 0.07748832 -0.021818079
0000e0 7e d8 dd 3d fa db fe 3c 35 e2 98 bd 20 08 23 3c
       0.10832308 0.031110752 -0.074650206 0.009950668
0000f0 dd 1a 81 bb 32 59 07 3a e2 90 a0 3d c2 bd 72 3d
       -0.00393997 0.00051631324 0.07840134 0.059263
000100 27 68 75 bd 1d f1 8d 3e 18 bb 32 be 23 98 6e 3d
       -0.05991378 0.27723017 -0.17454183 0.058250558
000110 17 be 1a 3d 4b b3 41 3e 93 fe 58 3e c6 7b 06 be
       0.03777894 0.18916051 0.21190862 -0.13133153
000120 a4 c3 af 3d a8 6a 15 3e ea 69 0b 3e 5a 01 f8 bd
       0.08582237 0.14591467 0.13614622 -0.12109633
000130 45 5d 62 be b4 cf 13 bd e6 e8 4e bd f8 80 00 bd
       -0.22105892 -0.036086753 -0.050515078 -0.031372994
000140 5b 48 17 be ed cb 5e 3b 57 7b 1c bd 18 23 aa 3c
       -0.14773695 0.003399606 -0.038203564 0.020768687
000150 e2 ff 15 bd b7 d9 01 bc aa be 3d bd dc b8 03 3e
       -0.036620982 -0.007925442 -0.04632441 0.12863487
000160 4e 39 12 bd e8 79 7d 3d 62 44 7e 3d 7a b1 56 bd
       -0.03569918 0.061883837 0.062076934 -0.05241535
000170 c8 9a 8d 3d b1 c8 13 be f1 63 12 be 3b 9d 5d 3d
       0.06914288 -0.14432026 -0.14295937 0.054105025
000180 38 62 03 3e db ad 93 bd 83 db 10 be 32 94 35 bd
       0.12830436 -0.07210895 -0.14146237 -0.044330783
000190 15 94 36 3e 37 bc 88 3e 43 fb d0 bc f0 de c5 3d
       0.17829926 0.26706097 -0.025510436 0.096616626
0001a0 b4 b8 69 3d f7 53 0e 3e cd bc 4b 3d dd 75 fd bd
       0.057060912 0.13899218 0.0497406 -0.12375996
0001b0 f9 e9 f4 bc 13 81 1d bb 9c 01 2f bc cc c9 0a 3e
       -0.029896723 -0.0024033233 -0.010681536 0.13553542
0001c0 d2 1b 31 3e 81 8f 1d 3e fb c4 ae bc 91 01 df 3d
       0.17295769 0.15386774 -0.021334162 0.10888971
0001d0 0e 53 a1 3d b8 49 c6 3a d2 26 c7 bd 60 73 c2 3c
       0.078771695 0.0015128171 -0.09724201 0.023736656
0001e0 cb b3 1a be bf ac 38 bc 57 6b 2b 3e 98 e0 51 be
       -0.15107648 -0.011271655 0.16740166 -0.20495832
0001f0 cd ed 04 3e ff 79 93 3d 0a b4 1f 3e fc ed 08 be
       0.12981339 0.07201003 0.15596023 -0.13372034
000200 ad 77 e3 bd 02 84 d7 3d 76 b2 30 3d f8 e3 d8 b7
       -0.11106811 0.10523225 0.043138944 -2.5855363e-05
000210 80 8b f7 3c 94 6d 61 3d b3 63 29 3e 60 56 5a be
       0.030217886 0.055036142 0.16541938 -0.21322012
000220 62 7c c7 bc ec a9 18 3e 5d 0f 03 bd cc 40 c8 bd
       -0.024351303 0.1490857 -0.031997073 -0.09777984
000230 3d 72 e2 bb bc 18 e8 bd b8 c1 10 bd bc b0 01 3d
       -0.006910591 -0.11332843 -0.035340995 0.031662688
000240 b2 e2 12 3c e2 03 9f bc 4e d8 3b 3d ce 40 5f bd
       0.008965181 -0.019411031 0.04586058 -0.054505162
000250 a2 0c d6 3c 76 b8 6e bc b5 62 1e be 78 f9 eb bd
       0.02612907 -0.014570346 -0.15467341 -0.11522192
000260 52 7d 41 bb 0d ba 85 be 87 26 c1 3c 01 44 7a ba
       -0.002952416 -0.26118508 0.023577942 -0.00095468765
000270 49 f8 6a bd bb 44 23 be 8f c7 ff bd f0 e0 32 bd
       -0.05736569 -0.15944187 -0.12489235 -0.04367155
000280 3a bc a0 3c a3 d0 5a ba 35 74 05 3d a4 5a 0f 3d
       0.019621003 -0.00083471293 0.032581527 0.03499855
000290 84 f6 e4 3d d0 3d 0d 3e 23 a6 77 ba 63 ea 37 3d
       0.111798316 0.13793111 -0.00094470585 0.044901263
0002a0 cb 50 00 bc f1 c7 98 bd c4 3e 0e 3b bd 82 1c be
       -0.007831763 -0.07460011 0.0021704892 -0.15284248
0002b0 ca ec ea bd 7e 09 4c ba 97 e3 39 bc 8f d6 89 bd
       -0.11470945 -0.0007783397 -0.011345766 -0.06730377
0002c0 81 6a 00 3e 66 c4 24 3d 0b 90 77 bd 4d 7a 84 3d
       0.12540628 0.040226363 -0.060440104 0.064686395
0002d0 e8 5f d8 3c 8e 3d 99 bb e7 65 01 bd 2e 39 9a 3c
       0.02641292 -0.0046765273 -0.031591322 0.018826094
0002e0 c1 9a be 3c 49 3a c3 3b bf 77 e1 3d 0a 55 59 bd
       0.023267152 0.005957876 0.11009168 -0.053059615
0002f0 f1 02 8f bc 86 0d 57 3d c8 e7 ea bd 80 f8 57 bd
       -0.017457457 0.05250313 -0.1146999 -0.052727222
000300 1e 77 f2 bc c3 e5 56 bd bf 9b 48 bd 2d 5e 6c bd
       -0.029597815 -0.05246521 -0.048976656 -0.057707
000310 2c e7 57 3c a3 89 9a 3a 9a 7b 88 bd d8 a2 2e be
       0.013177674 0.0011790287 -0.066642 -0.17054307
000320 70 31 46 3b 5c d8 ed bd 18 93 0c be 82 33 a0 be
       0.003024187 -0.11613533 -0.13727987 -0.31289297
000330 0b 60 51 be 86 45 b8 3b f6 83 6c bc f9 07 e2 3c
       -0.20446794 0.005623522 -0.014435759 0.027591692
000340 3d 7f 37 3d fa 18 aa 3c 33 f3 c0 39 d3 19 ae bd
       0.04479908 0.020763863 0.0003680229 -0.08501019
000350 f5 1c 8d bc 1d 2d 87 3b f5 0a 61 3d 27 14 64 be
       -0.017225722 0.004125251 0.05494209 -0.22273313
000360 70 78 18 3b 10 4f 8f be da 42 6b 3b 81 90 cf be
       0.0023265146 -0.27990007 0.0035898 -0.40539935
000370 59 5f 3d bd f7 ba 31 3d b7 f7 94 bd 4a 40 83 bd
       -0.04623351 0.043391194 -0.0727381 -0.064087465
000380 9c e5 3c bc 54 db c0 bb 95 fd 52 bd a5 c3 01 bc
       -0.0115293525 -0.005885521 -0.051511366 -0.00792018
000390 36 bb 33 be ae f0 3d bc b2 20 24 3c 34 3f 34 3c
       -0.17551884 -0.011593027 0.010017561 0.011001397
0003a0 e2 04 10 be 48 dd bb 3b 50 8e ab bb a1 92 4f be
       -0.14064363 0.005733166 -0.005235471 -0.20270778
0003b0 df a2 95 3d 56 ea b5 bc 22 38 e7 3b 4f 4b 1b 3d
       0.07306456 -0.022206467 0.007056252 0.037913617
0003c0 f9 c3 33 be 51 f6 ab bd 91 86 53 3d 28 c1 bf bd
       -0.17555226 -0.083965905 0.051642004 -0.093630135
0003d0 04 b9 87 bc 67 7c 40 bd 31 23 40 3c 30 4c 1c bd
       -0.016567715 -0.04699364 0.01172714 -0.038158596
0003e0 07 4f 7e bd 9b 41 85 3c fd 2d 9f bc 44 bd b2 ba
       -0.062087085 0.016266635 -0.019431109 -0.0013636728
0003f0 ef d8 14 be 07 d1 4c 3c 36 88 70 be 2b 0a 46 be
       -0.14535879 0.012501008 -0.2348946 -0.19339816

conv_layers.0.bias f4 [64]
000000 8a 60 cc 3d 99 eb c0 be 70 44 6f 3d 85 15 14 be
       0.09979351 -0.37679747 0.058414876 -0.14461334
000010 56 ca 55 3e 41 6a 37 3e 86 4c a5 be 3e fd 2d 3e
       0.20877966 0.17911626 -0.32284945 0.16991135
000020 1f 57 ab bd 10 72 67 be f4 6b c4 3d b0 2c 22 be
       -0.083662264 -0.22602105 0.09590903 -0.1583736
000030 c1 2e 95 bd 94 46 4f 3e 72 72 2c 3e fa a0 84 3e
       -0.07284308 0.20241767 0.16840532 0.25904065
000040 b1 d0 db 3c e1 2f 06 3e e5 af 29 3e aa 4c 16 3e
       0.02683291 0.13104202 0.16571005 0.14677683
000050 1d d6 0e 3e 07 e8 56 3e 2f ed 82 3d f0 be 31 bd
       0.13948865 0.20986949 0.063928954 -0.043394983
000060 93 42 84 3e ed 91 11 3e fb 40 a6 3d 22 10 0e bd
       0.25832042 0.14215823 0.08117863 -0.034683354
000070 64 e8 f4 3d a3 19 a2 3d 35 48 32 3d 5c b0 e2 bd
       0.119583875 0.07915046 0.043525893 -0.11068794
000080 fd 9d 39 be 0d 09 0a 3e d4 41 9c bd c1 26 59 3e
       -0.18126674 0.13480015 -0.07629743 0.2120619
000090 c5 5e 8d be d1 c8 b3 be ca 54 6f 3e 06 70 0b be
       -0.27611366 -0.35114148 0.23372188 -0.13616952
0000a0 e8 8c 3b 3e 32 08 31 3e 7a a9 3d 3d 74 5f 16 3e
       0.1831547 0.17288283 0.046304204 0.1468485
0000b0 ce 4c 2d bc 8d f0 fb 3d 26 6a 4a 3e 68 52 26 3e
       -0.010577394 0.12301741 0.19767055 0.16242373
0000c0 1f d5 56 be 77 80 4e be 09 19 49 3e 68 50 43 be
       -0.20979737 -0.20166193 0.19638456 -0.19073641
0000d0 ca 09 12 3e fd 09 9a bd e2 08 33 3e 55 61 90 3d
       0.14261547 -0.07521436 0.17483857 0.070498146
0000e0 18 29 e4 3d 10 41 8d 3e c3 80 8b be cb 8b 8c 3d
       0.111406505 0.275887 -0.27246675 0.06862601
0000f0 a0 dc 1e 3e 45 b2 83 3d b6 70 e0 bd 65 b7 3a be
       0.1551385 0.064304866 -0.10958998 -0.18234022

post_mp.0.weight f4 [64, 64]
000000 4c c5 42 bc d7 5a 26 bd e7 92 1e 3d db cd 8e bd
       -0.01188786 -0.040613975 0.038714316 -0.069728576
000010 77 d4 c7 3d cd 13 1e 3d cb fb f5 bc 30 64 f4 3c
       0.09757321 0.038593102 -0.03002729 0.02983293
000020 4d 4e 4d bd 73 63 d6 bc 64 7c 01 3d ce 00 4a bc
       -0.0501235 -0.026170468 0.03161277 -0.012329293
000030 04 af 86 bc 15 a5 2f 3d a4 70 a2 3d e2 ce d5 3d
       -0.016440876 0.042882044 0.07931641 0.104398504
000040 0f 13 80 3d f9 49 99 3d 0d 63 da 3d 7f fd d0 3d
       0.06253635 0.07484812 0.10663424 0.102046005
000050 1d bd e2 3d 57 cb d7 3d 06 b8 95 bb 09 70 76 bc
       0.11071227 0.10536831 -0.0045690564 -0.01504136
000060 16 25 cd 3d 7e 5c 4a 3c eb 95 c7 3d f1 13 9a bc
       0.10016839 0.012351153 0.097453915 -0.018808337
000070 fc fc c6 bc bd 86 29 bc ec e6 09 3d b1 db 6a bd
       -0.024290554 -0.0103470655 0.03366749 -0.05733842
000080 9c 2f 90 bd 83 82 da 3d 39 0a f1 3c dc e5 ff 3d
       -0.07040331 0.106694244 0.02942382 0.12495014
000090 63 1c 81 bc 08 ed 22 3c 9b 8c c0 3d 45 60 a3 bd
       -0.015760606 0.009944208 0.09401818 -0.07977346
0000a0 d4 28 40 3d 8e c8 88 3d 86 12 ae 3b e4 f0 d2 3c
       0.046913937 0.06678878 0.0053122668 0.025749631
0000b0 52 ef da bc 0c ed d6 3d db ce c5 3d bc 3f b3 3d
       -0.026725445 0.10494432 0.09658595 0.08752391
0000c0 a3 b2 b8 bc 88 3a 93 bd 60 c2 a7 3d 8f 99 96 bd
       -0.022546118 -0.07188898 0.08191371 -0.07353508
0000d0 09 6b bc 3d f4 0d 23 bc b1 e4 91 3d 7c 69 0d 3d
       0.09200103 -0.009952057 0.071236975 0.034524426
0000e0 0c 67 54 3d 01 83 c4 3d 64 8c 16 bd 8c cd 29 3d
       0.051856086 0.095952995 -0.03675498 0.04145579
0000f0 c7 fe ca 3d ec 84 f1 3c 38 e0 0c bd 7e 60 ea bb
       0.09911876 0.029482327 -0.03439352 -0.007152616
000100 9b 98 98 bd 8d 09 5a bd 7c 61 52 3c 1b be b0 bd
       -0.07450982 -0.053231765 0.012840625 -0.0863001
000110 e6 01 7d 3d 83 68 b1 3c aa b7 2a bb 72 53 5a bd
       0.06176939 0.02165628 -0.0026049414 -0.053302236
000120 60 92 44 bd 85 ae f9 bc e8 d1 58 3d 22 2d 6d bc
       -0.047991157 -0.030478725 0.052934557 -0.0144760925
000130 ca 83 ba bb a2 c0 c5 3c ee ed f9 3d 69 51 ab 3d
       -0.00569198 0.024139706 0.122035846 0.08365137
000140 4a ea 95 3d fe 03 81 3d 61 84 ac 3d 0c 0f 9c 3d
       0.07320078 0.062995896 0.08423687 0.076200575
000150 a1 1f eb 3d d3 13 aa 3d 1c 9d 90 bd 04 9a 05 bd
       0.11480642 0.083045624 -0.07061216 -0.032617584
000160 44 2f 7d 3d 42 91 02 bb a5 4f b8 3d cd ac aa bc
       0.061812654 -0.0019923006 0.08999566 -0.020834351
000170 a2 cb 50 3c 33 5a 3f bd e9 1f 96 39 62 3d 86 bd
       0.012743862 -0.04671688 0.00028634004 -0.065546766
000180 b7 98 9b bd 80 8b e5 3d e7 2e 82 3c 48 0e d4 3d
       -0.075974874 0.11208248 0.015891505 0.103542864
000190 7d a4 aa bc 16 d9 51 bc eb 91 bd 3d aa 5c 97 bd
       -0.020830387 -0.012808105 0.09256347 -0.07390721
0001a0 a9 ce 9a 3d ec c6 81 3d b0 0f 1a bc e5 1d af bc
       0.075589485 0.063367695 -0.009403154 -0.02137656
0001b0 d8 a8 5e bd 75 a6 df 3d 1f 1b 92 3d d8 eb 6c 3d
       -0.05436024 0.10920421 0.07134079 0.057842106
0001c0 8c c2 c2 bc fe 9e 8c bd 17 ab 18 3d 9a 57 30 bd
       -0.023774408 -0.06866263 0.03727254 -0.043052293
0001d0 8d 2f b4 3d ae fc d0 bc 2d 21 18 3d de 63 fc 3c
       0.08798132 -0.025511112 0.037141014 0.03080934
0001e0 d0 95 3d 3d d0 64 27 3d 30 18 1c 3c ff 0c b5 3c
       0.04628545 0.040867627 0.009527251 0.022100924
0001f0 97 08 ad 3d 86 36 db 3c fc 1a 8c bd e8 6f 25 bd
       0.08448904 0.026759397 -0.06841084 -0.040389925
000200 52 7b a9 bd 01 27 22 bd 80 d7 f1 3c db be c5 bd
       -0.082754746 -0.03958798 0.029521704 -0.096555434
000210 fe 00 59 3d 13 bb 51 3c d1 ff ee bc 11 39 3d bd
       0.05297946 0.01280095 -0.029174717 -0.046197
000220 8f fe 0a bd 1c ac fa bc 5c d3 0e 3d a7 50 b6 bc
       -0.033934172 -0.030599646 0.034869537 -0.022255255
000230 ff fe 26 bb ed bf e7 3c aa cc da 3d 50 b8 98 3d
       -0.002548158 0.02828976 0.10683568 0.0745703
000240 e8 0c 71 3d 53 48 83 3d a1 c2 cb 3d c3 1c ea 3d
       0.0588502 0.06410279 0.09949232 0.11431267
000250 90 0c d1 3d 65 71 c5 3d 83 5c 7c bd 18 a8 10 bd
       0.10207474 0.09640769 -0.061611664 -0.035316557
000260 40 e0 af 3d 93 d4 05 bb 01 59 a6 3d af 1b 7b bc
       0.08587694 -0.0020420894 0.08122445 -0.0153264245
000270 13 02 7b 3c 07 54 f7 bc 9c 8d 58 bb f4 3b 9f bd
       0.015320319 -0.030191435 -0.003304339 -0.07775107
000280 b7 46 96 bd 86 c8 ce 3d c8 b4 fc 3c 86 ee b3 3d
       -0.073377065 0.100968406 0.030847922 0.08785729
000290 44 ca 0d bd e8 51 f1 3c e5 5f b9 3d 5a 87 b7 bd
       -0.034616724 0.029458001 0.090514936 -0.08961363
0002a0 26 b7 be 3d 35 10 69 3d 12 96 cf 3b 3d c6 b6 bc
       0.093122765 0.05690022 0.0063350284 -0.022311324
0002b0 bd ad ac bc d9 09 ab 3d ac f8 ad 3d cb 0e 75 3d
       -0.021078939 0.08351488 0.08494696 0.05982856
0002c0 cc 3b 1e 3c e4 88 89 bd 56 cf 02 3d f9 92 7c bd
       0.009657811 -0.06715563 0.031936012 -0.0616636
0002d0 43 cb b6 3d 2f 27 ff bb bd 4c 32 3d 63 17 0f 3d
       0.08925488 -0.0077866535 0.043530215 0.034934413
0002e0 ae c1 7b 3d 51 82 4b 3d 33 a2 6d bc 78 d3 36 3d
       0.061464004 0.049684826 -0.014504003 0.044635266
0002f0 ab 2a c4 3d 0f 78 1e 3d 93 12 39 bd ad 1d 48 bd
       0.09578451 0.038688716 -0.04518373 -0.048856426
000300 88 bc d4 bc ff 09 0f bd 2b e5 e1 3c 3d f4 b9 bd
       -0.025968805 -0.034921642 0.027575096 -0.09079788
000310 f5 95 87 3d f8 aa 58 3d 5f 5c 3b bd 04 46 0b bc
       0.06620399 0.052897424 -0.04574239 -0.00850058
000320 26 80 44 bd 8a 6b 04 bd 37 03 89 3d 8c ee 70 bc
       -0.047973774 -0.03232912 0.06690066 -0.0147053115
000330 95 50 ce 3b f1 e3 11 3d 46 0d a6 3d 8a a7 a8 3d
       0.006296227 0.035617772 0.081080005 0.082350805
000340 8b e9 5c 3d 62 cc a7 3d 8e 0b e3 3d d4 21 cd 3d
       0.05393366 0.0819328 0.11086188 0.10016218
000350 f2 96 d3 3d f7 1f cc 3d 6b 6c e3 bc 2f 93 ac bc
       0.10331525 0.09967034 -0.027761659 -0.021066276
000360 86 30 af 3d dc 46 b8 3c fd 18 ad 3d c4 b6 b6 bc
       0.08554177 0.022494726 0.08452032 -0.022303946
000370 46 cc 8f 3c 49 d6 8f 3a 4b 7f 61 3c 42 53 86 bd
       0.01755346 0.0010973896 0.013763259 -0.06558849
000380 93 fc 96 bd a1 d8 e6 3d 52 57 17 3d 32 81 e7 3d
       -0.073723935 0.112717874 0.03694851 0.11303939
000390 c3 83 19 bd 64 f5 73 bc 5f 9f a9 3d a6 80 a0 bd
       -0.037479173 -0.014890049 0.08282351 -0.07837038
0003a0 60 30 a5 3d e7 8b 86 3d 86 36 b5 3b 0b e9 c5 3c
       0.080658674 0.06569653 0.0055301813 0.024158975
0003b0 bb 6f d0 bc 7e e4 c3 3d 70 11 d0 3d 9e 0c c9 3c
       -0.025443902 0.09565066 0.10159576 0.02454215
0003c0 8a 0d b2 bc 45 81 92 bd de 4a 99 3d 99 36 5f bd
       -0.021734972 -0.071535625 0.07484983 -0.054495428
0003d0 20 48 b2 3d b0 5f 5c bc 5c 4e 3e 3d 12 67 11 3d
       0.08705163 -0.013450548 0.046461448 0.035498686
0003e0 d7 1d 48 3d 67 f8 e8 3d ce 40 e0 bc 64 c4 76 3c
       0.048856582 0.11375504 -0.027374651 0.015061472
0003f0 c0 69 ba 3d f9 aa 9c 3c 63 b0 02 bd 0e 10 2a bd
       0.091022015 0.019124495 -0.031906497 -0.041519217

post_mp.0.bias f4 [64]
000000 6e 8c 8c 3b 66 4a 37 bb af 1f bd 3a 79 37 e3 bb
       0.0042892015 -0.002796793 0.0014428998 -0.006934103
000010 01 25 48 bd 50 12 99 3b 88 02 86 bb cb 20 75 3c
       -0.048863415 0.0046713725 -0.004089657 0.014961432
000020 dc 87 76 3d 48 33 7d 3d 46 d0 43 bc 71 7c 50 3d
       0.06018816 0.061816484 -0.011951512 0.050899927
000030 53 0d 76 ba 31 13 80 bb ea 67 81 3d f8 5c 29 3d
       -0.0009386141 -0.003908538 0.06318648 0.041348428
000040 c9 f8 1d 3d d2 0a c8 bc e5 73 1c bc b2 05 01 3b
       0.03856734 -0.024419222 -0.009549116 0.0019687233
000050 1a f1 f3 bd e7 21 77 3d a3 76 8f 3c 9a 60 06 3b
       -0.11911221 0.060335066 0.017512625 0.0020504356
000060 a7 5e 23 bc e1 5b c4 b9 dc af 7b 3d 5e e4 41 be
       -0.009971297 -0.00037452488 0.06144701 -0.18934771
000070 1c f2 52 3c 65 94 46 3d aa 15 2e bc 7b 14 51 3d
       0.012875106 0.048481364 -0.010625282 0.051044922
000080 c5 e0 40 3d db 62 88 bb 67 c2 07 bc cc 83 27 3d
       0.047089357 -0.004162175 -0.008286095 0.040897176
000090 0c 26 4e 37 bf 97 9a ba 70 e4 bd bb 9a 17 7e bc
       1.2287415e-05 -0.0011794491 -0.005795054 -0.015508557
0000a0 ce 0d c2 3c 04 a5 af ba a1 6c 26 3b e4 b1 ca 3a
       0.023688223 -0.0013400619 0.0025394338 0.0015464392
0000b0 cf 0b d0 3a 6b 33 3a 3d c8 2f 85 bc f3 27 2d 3b
       0.001587266 0.045459192 -0.016258135 0.0026421517
0000c0 5d ac b7 3c f2 67 80 3b 83 af 90 3c 1e 6a 83 3c
       0.022421056 0.0039186412 0.017661816 0.016041812
0000d0 e5 5a c2 3c e8 30 15 3d f8 0e a1 bb 75 8b 22 3d
       0.023724983 0.036423594 -0.0049151145 0.039683778
0000e0 03 92 4f 3d c4 91 b9 bb cd 48 99 ba 6c 5d 5a 3d
       0.050676357 -0.0056631286 -0.001169467 0.05331175
0000f0 4d 1f 5a 3c 0b 7e 71 3d 52 df 52 3d da 25 12 39
       0.013313127 0.058958095 0.051482506 0.00013937746

post_mp.3.weight f4 [64, 64]
000000 f9 ef b4 3d 13 34 af 3d 0c 43 ab 3d 70 c9 b5 3d
       0.08834834 0.08554854 0.083623976 0.08876312
000010 bb a4 9a bd 70 67 a7 3d 84 25 cc 3d 53 7d 82 bd
       -0.07550951 0.08174026 0.09968093 -0.0637156
000020 9c f8 8c bd af 90 0c bd 3b 42 af 3d 6c b9 6d bd
       -0.06883356 -0.03431767 0.08557554 -0.05803816
000030 84 78 a8 3d 43 98 b9 3d 45 12 05 3d 0f 57 9c bd
       0.082261115 0.09062245 0.032488126 -0.076337926
000040 a4 d2 79 3d fa e9 83 bd 26 d9 a8 3d 70 c8 9e 3d
       0.0609919 -0.06441112 0.08244543 0.07753074
000050 0b 6f b7 bd f1 64 6a bd 9f 64 48 bd 2f dd 98 3d
       -0.08956727 -0.05722517 -0.048924085 0.074640624
000060 2d b3 97 3d a3 44 a7 3d 89 5f 5e bd 20 a9 b2 bd
       0.07407222 0.08167388 -0.05429033 -0.08723664
000070 39 b6 81 bd 29 38 8d bd c1 e5 a7 3d 01 f8 79 bd
       -0.06333584 -0.06895477 0.08198119 -0.06102753
000080 a6 ca 66 3d 93 10 a3 3d 0c fc 66 bd 38 9e 8d 3d
       0.056345604 0.07962146 -0.056392714 0.069149435
000090 27 5a aa 3d 34 c4 20 b8 6a 23 86 3d 11 28 8c 3d
       0.083179764 -3.83297e-05 0.065497234 0.068435796
0000a0 be 81 98 bd 0e 65 ac 3d aa 02 a5 3d 9b 28 9f 3d
       -0.07446621 0.08417712 0.08057149 0.07771417
0000b0 5a ff b3 3d 03 0e 79 bd 92 e9 ab 38 ae b5 b9 3d
       0.08788939 -0.06080438 8.197421e-05 0.09067856
0000c0 73 ab 49 bd 3e 11 b7 3d 84 64 8c bd ea db 4c bd
       -0.049235772 0.089388356 -0.06855109 -0.050014414
0000d0 c3 e0 8b bd 43 cb 4a bd 7b 35 a9 3d a3 ce 54 bd
       -0.06829979 -0.04951025 0.08262154 -0.051954877
0000e0 9f eb 65 bd df 01 9d 3d ce f8 a1 3d 3e bb 2c bd
       -0.05613291 0.076663725 0.07908784 -0.042170756
0000f0 53 40 6c bd b9 ec 30 bd 34 2f b6 3d e2 0c c1 3d
       -0.05767853 -0.043194506 0.08895722 0.09426285
000100 d0 4c a0 3d 7d ca 9a 3d 75 78 9f 3d ce 2c 87 3d
       0.07827151 0.07558153 0.07786647 0.06600343
000110 9e 4e 50 bd 05 d2 98 3d 00 5c a3 3d 07 27 58 bd
       -0.050856225 0.07461933 0.07976532 -0.052771594
000120 62 2d 55 bd fd da 21 bd f2 77 b3 3d bc 12 3b bd
       -0.052045234 -0.039515484 0.08763112 -0.045672163
000130 73 ce a3 3d 75 10 99 3d 4a c6 35 3c 26 36 8e bd
       0.079983614 0.07473842 0.011094639 -0.06943922
000140 10 37 bf 3d f7 7f a1 bd 6f a8 8f 3d eb 7f 94 3d
       0.09336674 -0.078857355 0.07014548 0.07250961
000150 de 1c 82 bd 7d 12 47 bd 8c 50 27 bd fb ef 9c 3d
       -0.06353162 -0.048601616 -0.0408483 0.0766296
000160 4d 5d 9d 3d ea 68 9e 3d 66 6a 1a bd 53 4e b9 bc
       0.07683811 0.077348545 -0.037699126 -0.022620356
000170 b9 86 37 bd 88 46 78 bd 9d 49 99 3d ef fb 1e bd
       -0.044806216 -0.06061414 0.07484744 -0.03881448
000180 d9 c6 a7 3d 38 13 75 3d d9 9a 56 bd 5b 6b ae 3d
       0.08192224 0.05983278 -0.052393768 0.0851657
000190 90 1a 94 3d 5c b7 87 b7 bb c7 8a 3d 21 db 6c 3d
       0.07231629 -1.6178637e-05 0.06776377 0.057826165
0001a0 3c d0 53 bd db 6b 94 3d e5 54 93 3d cb 08 8c 3d
       -0.05171226 0.07247134 0.07193927 0.068376146
0001b0 10 f5 9b 3d 65 65 25 bd f3 ca 58 b8 c2 f3 91 3d
       0.07615101 -0.0403799 -5.1687424e-05 0.07126571
0001c0 ec 0f 27 bd 02 2f 93 3d 40 e0 56 bd 8e 79 18 bd
       -0.04078667 0.071867004 -0.052459955 -0.0372253
0001d0 f8 79 50 bd ce 2a 55 bd 04 0e 9b 3d 68 7c 08 bd
       -0.05089757 -0.052042775 0.07571033 -0.033321768
0001e0 57 17 3a bd bd b0 8f 3d c8 d3 9e 3d 2a 2a 62 bd
       -0.045432415 0.07016132 0.07755238 -0.055215992
0001f0 9b 9a 3f bd b7 80 ff bc 6f 3d 90 3d e5 13 bd 3d
       -0.046778303 -0.031189306 0.070429675 0.0923231
000200 ac d1 77 3d a2 cc 89 3d 01 df 84 3d ae d5 8b 3d
       0.060502693 0.06728484 0.06487847 0.068278655
000210 1b 1e 8a bd a8 c6 95 3d ef 25 8a 3d d0 34 22 bd
       -0.067440234 0.07313281 0.067455165 -0.039601147
000220 13 82 4f bd 2d ed 23 bd f4 0f 90 3d df 8a 1a bd
       -0.050661158 -0.04002111 0.07034293 -0.037730094
000230 29 09 92 3d 0c 58 96 3d 6c c2 fd 3c bf 3c 54 bd
       0.071306534 0.07341012 0.030976497 -0.051815744
000240 05 63 b0 3d bb d0 8d bd ad bb 47 3d 47 65 84 3d
       0.086126365 -0.06924578 0.048762966 0.064646296
000250 7d a4 87 bd c3 66 64 bd 95 33 4e bd a2 2c 85 3d
       -0.066231705 -0.055762064 -0.05034216 0.06502654
000260 78 34 6d 3d 2b 7b 87 3d 04 61 2d bd e4 e4 20 bd
       0.057911366 0.06615289 -0.04232885 -0.039280787
000270 10 b2 2d bd 5e 0d 58 bd 8f 15 88 3d 55 86 3f bd
       -0.04240614 -0.052747123 0.06644737 -0.04675897
000280 67 3f 49 3d d8 8f 73 3d 60 3a 67 bd bf dd 6e 3d
       0.04913273 0.059463352 -0.056452155 0.058316942
000290 cb 17 85 3d 33 d7 4d b6 fb 43 76 3d f6 3e 4c 3d
       0.06498679 -3.0672643e-06 0.060123425 0.04986473
0002a0 c2 36 2f bd ef 60 8e 3d 48 e9 83 3d 70 7f 8b 3d
       -0.04277683 0.06952082 0.06440979 0.06811416
0002b0 18 3f 77 3d 9a 51 08 bd ae c9 91 b6 0f 73 7b 3d
       0.060362905 -0.033280946 -4.3448154e-06 0.061389025
0002c0 52 36 f0 bc 8b 0f 8f 3d ec 64 23 bd de 21 5f bd
       -0.029322777 0.069853865 -0.03989117 -0.054475658
0002d0 0e eb 54 bd 46 7e 3c bd 90 ed 8e 3d 9a 92 1d bd
       -0.051981978 -0.04601886 0.06978905 -0.03846989
0002e0 6e 15 41 bd 42 5b 79 3d 3d ea 91 3d 3e 54 17 bd
       -0.047139578 0.060878046 0.071247555 -0.036945574
0002f0 b8 d5 15 bd 0b 3b 36 bd ec 20 ac 3d 13 27 90 3d
       -0.03658077 -0.0444899 0.08404717 0.07038703
000300 e3 5b 1c bd 8a 09 02 bd 11 31 fe bc 8f ae 10 bd
       -0.038173568 -0.03174738 -0.031029256 -0.035322722
000310 fb fd 38 3d 95 42 1e bd d0 48 43 bd f4 10 04 3d
       0.04516409 -0.038637716 -0.04767686 0.03224273
000320 ef a4 c4 3d 2e d0 b5 3d f7 ce 18 bd c2 cf be 3d
       0.09601771 0.08877598 -0.037306752 0.093169704
000330 07 8f 1d bd 67 89 29 bd dc f5 b8 bd b4 6f c8 3d
       -0.03846648 -0.041390803 -0.09031269 0.09786931
000340 cb db e8 bd 54 27 ed 3c 5e f8 76 bc 6b 63 c5 bc
       -0.11370047 0.028949417 -0.015073864 -0.024095258
000350 68 b9 a0 bb 0d 6c fe 3d 0a 3b 83 3d f0 11 3e bd
       -0.0049049146 0.12422953 0.06407745 -0.046403825
000360 3e 1c d9 bc 6a 8f 01 bd c8 a0 a1 3d 1c c4 be 3c
       -0.026502725 -0.03163091 0.07891995 0.023286872
000370 73 15 1a 3d f5 54 9c 3d 81 44 08 bd 2e 65 53 3d
       0.03761811 0.07633392 -0.033268455 0.051610164
000380 c7 4d d2 bd 7a 76 cf bc f8 4e bc 3c 1b 31 c6 bd
       -0.10268741 -0.025325049 0.022986874 -0.09677335
000390 36 52 f9 bc 54 f4 4d b6 21 8b 0e bd 6f 09 ae bc
       -0.030434709 -3.0689598e-06 -0.034800652 -0.021244733
0003a0 d5 2e a6 3d d8 f4 30 bd 4d a8 1e bd d6 9f 12 bd
       0.08114401 -0.04320225 -0.038734723 -0.035796963
0003b0 8e e2 23 bd 78 db a8 3d a2 94 2c 36 65 bb 05 bd
       -0.04001098 0.08244985 2.5716513e-06 -0.032649416
0003c0 bc 0c a6 3d 6a 33 16 bd 6a b4 d5 3d 42 c9 88 3d
       0.08107898 -0.036670126 0.10434802 0.06679012
0003d0 bb a8 15 3d 9c 47 82 3d be 99 1d bd f2 f9 86 3d
       0.036537867 0.06361315 -0.038476698 0.06590642
0003e0 ef b9 90 3d 60 b4 0b bd f1 b3 36 bd c0 59 c1 3d
       0.07066714 -0.034107566 -0.0446052 0.094409466
0003f0 47 78 cb 3d 04 a9 c4 3d 63 cc 09 be 94 aa e1 bc
       0.099350505 0.0960255 -0.13456874 -0.027547158

post_mp.3.bias f4 [64]
000000 c5 3f 57 3d 8b 2d 5b 3d 4b 5a 57 3d 14 e9 a6 3d
       0.05255105 0.05351023 0.052576344 0.08149925
000010 be 52 46 3d c2 6f 56 3d 33 b9 55 3d f5 80 6f 3d
       0.048418753 0.052352674 0.052178573 0.058472592
000020 5b e5 ab b9 24 1a 80 3d ad 02 8a 3d a0 c1 1b 3d
       -0.00032786545 0.06254986 0.067387916 0.038026452
000030 14 6a 2d bc b9 80 5b 3d 47 9c f3 3d 6e ba 6d 3d
       -0.010584373 0.053589556 0.11895042 0.05803912
000040 a3 f6 70 3d 62 82 7a 3d f0 0d 64 3d 44 61 37 3d
       0.05882896 0.0611595 0.055677354 0.044770494
000050 e0 a1 86 3d 67 49 71 3d 15 e9 ba 3d 0b 92 86 bb
       0.06573844 0.058907893 0.09126488 -0.004106765
000060 65 90 d5 bc cf d6 a2 3d b5 c6 45 3d 3f 55 b3 3d
       -0.02606983 0.07951128 0.048285205 0.08756494
000070 61 a5 af 3d 84 b1 b7 bc c2 7d 66 3d 94 89 e2 3d
       0.085764654 -0.022423513 0.056272276 0.11061397
000080 09 9d 5e 3d 77 0a 4a 3d 86 e1 7e 3d d0 4a 32 3d
       0.05434898 0.049326386 0.062226795 0.043528378
000090 6d 01 4e 3d fe b3 5d 3d 8e 0a 4b 3c ad 9f 26 3d
       0.05029433 0.054126732 0.012392653 0.040679622
0000a0 89 fc f8 3d 51 68 80 3d 5c 0c 60 3d 80 f4 d5 3d
       0.12157542 0.06269897 0.054699287 0.10447025
0000b0 d3 2d ac 3d a3 88 74 bb c1 2b 73 3d cf c6 68 3d
       0.08407178 -0.0037312887 0.0593679 0.056830224
0000c0 d6 ff 6e bb 3d 51 c9 3d 98 9c 60 3d e6 f7 99 3d
       -0.0036468408 0.09829948 0.05483684 0.07517986
0000d0 a9 ae 55 3d 5c 40 a8 3d b2 50 58 3d 5b 76 7a 3d
       0.052168522 0.082154006 0.052811332 0.06114803
0000e0 4b ff 45 3d a5 0e 63 3d 8c c4 71 3d 50 d7 99 3a
       0.04833917 0.055433888 0.059025332 0.0011737142
0000f0 50 48 7d 3d 1d c6 67 3d 3b 40 41 3d 03 a9 70 3d
       0.06183654 0.05658542 0.047180396 0.058754932

post_mp.6.weight f4 [2, 64]
000000 d4 a1 97 3e 0c 6f 97 3e 8b e3 94 3e 8a 3c 81 be
       0.29615653 0.2957691 0.29079852 -0.252415
000010 17 47 ae 3e 58 3b a8 3e e9 4f b6 3e 14 a0 64 3e
       0.34038612 0.32857776 0.35607842 0.2232669
000020 62 76 96 b9 58 85 5d 3e 65 95 2d be 7c c3 96 be
       -0.00028698432 0.21632898 -0.1695152 -0.29446018
000030 be 22 08 bc 31 24 92 3e 62 87 21 be 15 93 58 3e
       -0.008309064 0.28543237 -0.157743 0.21149857
000040 45 6a 94 3e 0e 3d 7c 3e 84 d3 a2 3e 1e aa 82 be
       0.28987327 0.24632666 0.31802 -0.25520414
000050 fa 6d 97 3e 6e ff 83 3e f4 38 11 be 1a 0d 44 3d
       0.29576093 0.25780815 -0.14181882 0.047864057
000060 15 ab dd bb 68 db 0a be fb d0 a5 3e 3d e5 48 be
       -0.0067647793 -0.1356026 0.32386002 -0.19618697
000070 53 e8 07 be 37 0f 62 3d f2 e9 a0 3e b6 94 30 be
       -0.13272218 0.05519029 0.31428486 -0.17244229
000080 ef 5b 88 3e 64 67 6e 3e bc 39 64 3e 0c 6d 95 be
       0.2663264 0.23281628 0.22287649 -0.2918476
000090 35 fa 7a 3e 54 17 8e 3e 8d da 35 3b af 92 a9 be
       0.24509509 0.27752173 0.0027748675 -0.33119723
0000a0 6a 80 11 be ff 1b 89 be 3b c5 4f 3e b5 e6 43 be
       -0.14209142 -0.26779172 0.20290081 -0.19130976
0000b0 2e c4 4c be 02 2a 5e ba 8e cc a8 3e e5 96 82 3e
       -0.19996712 -0.00084748876 0.32968563 0.25505748
0000c0 2a 86 46 3a fc 30 3f be 4a 5e 99 3e 28 f5 77 be
       0.00075730926 -0.1867103 0.2995475 -0.24214613
0000d0 97 e6 84 3e 69 a4 1c be ba 0f 9e 3e 2c 46 a4 3e
       0.25957176 -0.15297092 0.30871373 0.32084787
0000e0 03 e2 a1 be 80 40 89 3e 0c cd 54 3e 66 07 33 3d
       -0.31617746 0.26807022 0.20781344 0.043708228
0000f0 81 95 a5 3e 00 f7 5e be 0f 6a 4f 3e cb 75 75 be
       0.32340625 -0.2177391 0.20255302 -0.23970716
000100 53 ee a1 be a4 db 7d be 4d 3c 68 be 85 72 52 3e
       -0.3162714 -0.24790817 -0.22679253 0.20551498
000110 76 d0 b8 be b6 9c 82 be 4c 11 8d be df d2 97 be
       -0.36096543 -0.25510186 -0.2755226 -0.2965307
000120 cd 67 b7 3a da a6 96 be 05 02 46 3e f1 47 9f 3e
       0.0013992727 -0.29424173 0.19336708 0.31109574
000130 d9 34 ba 3c 2b 54 8b be c1 4c 22 3e d4 6f ab be
       0.022730278 -0.27212653 0.15849592 -0.33483756
000140 62 cc 85 be 68 db a6 be 43 e2 8a be de 3a ab 3e
       -0.26132494 -0.3258927 -0.2712575 0.3344335
000150 9b 74 94 be d8 a2 a1 be 07 d1 43 3e 4d 96 32 3c
       -0.28995213 -0.31569552 0.19122706 0.010900092
000160 51 8a a1 bc 76 32 84 3e 53 88 46 be a8 20 4a 3e
       -0.019719275 0.2581975 -0.19387941 0.1973902
000170 6e 41 84 3e a3 0f d8 bc dc aa 7f be 8d 77 3d 3e
       0.2583117 -0.026374644 -0.24967521 0.18502636
000180 6f a3 b7 be b1 b5 a6 be d2 07 9a be b1 a7 94 3e
       -0.35866877 -0.32560495 -0.3008409 0.29034188
000190 ab 52 a2 be bb 4c a2 be 9a 64 2b bd b7 72 a6 3e
       -0.31703696 -0.31699166 -0.041843988 0.32509395
0001a0 2c bf 0f 3e 31 1a 28 3e e7 1f 71 be e0 13 df 3d
       0.1403777 0.16416241 -0.23547326 0.10892463
0001b0 ba a7 28 3e eb fb 5a bb d8 1e 3d be b4 aa a0 be
       0.16470233 -0.0033414315 -0.18468797 -0.31380236
0001c0 b9 a1 e7 3a a5 c8 50 3e 51 f7 9e be 53 1e 6a 3e
       0.0017672098 0.2038904 -0.31048062 0.2286313
0001d0 15 8e 9a be 0d f6 32 3e 3c 05 a6 be 8d 4a 7b be
       -0.30186525 0.17476673 -0.3242587 -0.24540158
0001e0 58 d4 95 3e 10 f7 8c be 4f 00 59 be 99 41 28 3d
       0.29263568 -0.27532244 -0.21191524 0.041078184
0001f0 57 3e b7 be e0 5e 84 3e 61 98 6d be c9 ee 81 3e
       -0.3578975 0.25853634 -0.23202659 0.2537749

post_mp.6.bias f4 [2]
000000 3b 40 e7 be ac dd dc 3e
       -0.4516619 0.43137872
